assets/model.tflite (tflite, 511740 bytes, 5 tensors)

unknown_0 f4 [64]
-0.99311525 -0.31622776 0.02084893 -0.31622773 -6.2376256 79.42367 42.668747 -1.3776546
-0.31622776 -0.63245463 -0.3162277 -0.31622776 -0.31622732 -14.11292 -0.31622773 -14.990821
-0.9396336 -0.49632958 -2.4510543 -0.31622767 -0.632385 -0.6898266 -0.3311742 -0.31622553
-0.89816046 -0.390787 -0.31622735 -1.6157928 -0.31622759 -2.584411 -0.3162275 -3.9580126
-0.31622773 -0.3285527 -0.3162277 -0.31622753 -0.31622773 -1.1052543 -0.3162277 -0.3162277
-1.108519 -1.008125 -0.6324551 -0.24022114 77.58533 -0.023821115 -1.0507987 -0.900153
-3.8821096 -1.1280181 -0.31622735 3.1478193 -0.3381426 -0.6324537 -0.31622776 -4.051195
-0.31622773 -0.31622487 -0.8266081 -0.58124954 -0.31622773 -1.8577998 41.116272 45.21928
00000000: cd3c 7ebf 9be8 a1be 60cb aa3c 9ae8 a1be
00000010: a19a c7c0 ebd8 9e42 ccac 2a42 fc56 b0bf
00000020: 9be8 a1be 8ce8 21bf 99e8 a1be 9be8 a1be
00000030: 8ce8 a1be 85ce 61c1 9ae8 a1be 67da 6fc1
00000040: d48b 70bf e91e febe 13de 1cc0 98e8 a1be
00000050: fce3 21bf 7a98 30bf aa8f a9be 50e8 a1be
00000060: d8ed 65bf 3c15 c8be 8de8 a1be 4cd2 cebf
00000070: 95e8 a1be fd66 25c0 92e8 a1be 1450 7dc0
00000080: 9ae8 a1be 0f38 a8be 99e8 a1be 93e8 a1be
00000090: 9ae8 a1be f978 8dbf 99e8 a1be 99e8 a1be
000000a0: f3e3 8dbf 3d0a 81bf 94e8 21bf 88fc 75be
000000b0: b02b 9b42 8024 c3bc 9280 86bf 6d70 66bf
000000c0: 7c74 78c0 e662 90bf 8de8 a1be df75 4940
000000d0: 0721 adbe 7ce8 21bf 9be8 a1be 64a3 81c0
000000e0: 9ae8 a1be 3ae8 a1be 979c 53bf c5cc 14bf
000000f0: 9ae8 a1be 62cc edbf 1077 2442 8be0 3442

unknown_2 f4 [64]
-5.755092 -0.3162277 17.29757 -0.3162277 -1.2508852 1.5202588 -2.7206864 9.078891
-0.7456807 -16.952808 -0.31622773 -2.4878898 -1.5721014 -3.2295823 -3.7550201 -0.6324551
-3.6513278 -26.780354 -0.3162277 23.379147 -0.31622776 -0.90979147 -2.1498516 -1.7289581
-1.264909 -0.02611959 -0.7506285 -0.31622773 -0.31622773 -15.169885 -68.74055 -0.31622773
-0.3162277 -0.05955872 -2.086368 -1.2382923 -0.7972824 -0.31622773 -0.31622773 -13.132845
-1.1414572 -0.47610998 -2.3215652 -0.31622773 -0.6324552 -0.31622776 -4.205233 -5.6885695
-3.5674996 -1.2743216 -6.1926885 95.2673 -3.090465 -1.264906 -2.7938538 -0.31622776
-0.31622773 0.16759747 -0.32782826 -0.6640992 -1.0188982 -0.38337812 -1.6169062 -11.029764
00000000: b729 b8c0 99e8 a1be 6c61 8a41 99e8 a1be
00000010: 021d a0bf d797 c23f ba1f 2ec0 2343 1141
00000020: eee4 3ebf 5a9f 87c1 9ae8 a1be 9639 1fc0
00000030: 9e3a c9bf 7ab1 4ec0 4052 70c0 94e8 21bf
00000040: 5baf 69c0 2a3e d6c1 99e8 a1be 7e08 bb41
00000050: 9be8 a1be 18e8 68bf 2b97 09c0 804e ddbf
00000060: 8ae8 a1bf c0f8 d5bc 3029 40bf 9ae8 a1be
00000070: 9ae8 a1be d9b7 72c1 297b 89c2 9ae8 a1be
00000080: 99e8 a1be d8f3 73bd 0e87 05c0 5d80 9ebf
00000090: b31a 4cbf 9ae8 a1be 9ae8 a1be 2220 52c1
000000a0: 451b 92bf b0c4 f3be 8694 14c0 9ae8 a1be
000000b0: 96e8 21bf 9be8 a1be 4591 86c0 c308 b6c0
000000c0: ea51 64c0 f81c a3bf 812a c6c0 dc88 be42
000000d0: 2eca 45c0 71e8 a1bf 80ce 32c0 9be8 a1be
000000e0: 9ae8 a1be ac9e 2b3e 1bd9 a7be 6802 2abf
000000f0: 426b 82bf 234a c4be c8f6 cebf ea79 30c1

sequential_3/dense_9/MatMul;StatefulPartitionedCall/sequential_3/dense_9/MatMul f4 [64, 1925]
-1.5663561 -1.3183036 -0.009208947 0.26647693 0.30674243 -0.32618338 -0.38378966 0.36866778
-0.3356231 0.01818335 -0.3079561 0.029543862 -0.29243708 0.038639605 -0.58146966 0.06437957
0.6596061 -0.8467667 0.3022855 -0.96327305 -0.5963407 0.19668409 0.022094622 -0.023496337
0.5947994 0.333477 -0.31884703 0.2937227 -0.33414522 -0.6794825 -0.6451761 1.1144384
-0.04875307 0.9418781 0.026226342 0.2685396 -0.27138042 0.27644008 0.028536662 -0.298361
-0.013704453 0.9190197 0.35235715 -0.9173689 -0.3554983 -0.34109664 -0.90620005 -0.2834974
0.8022133 0.014382094 -0.5755092 0.0032672286 0.046294868 -0.62138784 0.2700453 -0.02935499
-0.33827937 -0.36316556 0.29056475 -0.26167336 -0.60531026 -0.28366178 0.64960515 0.003581345
0.5701718 0.31088966 -0.6006161 -0.27932385 -0.27062285 0.30843323 0.55807346 -0.4726556
-0.36538476 -0.3050434 -0.52154577 -0.8151777 -1.0990734 -1.1071789 -0.02875638 -0.3395566
-0.3474719 0.028839946 0.04582584 -0.9146582 0.33115077 -0.43006194 0.36847487 0.58267087
-0.98290455 -0.65623367 0.92361116 -0.022788186 -0.86121744 -0.34163815 -0.62213874 0.34807643
-0.6298288 -0.62722313 0.5668663 -0.47159156 -0.9778084 1.5397503 -0.6383058 1.1764349
-0.3516263 -0.30449417 0.35533285 -0.5992112 0.3583354 0.37052888 0.35791785 0.3572514
0.008385509 -0.8372239 -0.82824284 -0.05258682 0.8761681 -0.28137058 0.47736567 0.28947842
-0.028441906 0.6762795 -0.7409483 -0.52310956 -0.56302506 -0.35066327 -0.018407665 0.026535548
-0.9802984 0.97529185 0.054763436 -0.11025718 0.27343 0.2981211 -0.0348847 -0.34224167
0.5986408 -0.33693597 0.30806103 0.5831385 -1.1386566 -0.64159024 -0.6258427 0.68516207
-0.29123905 -0.003956903 -0.63767767 -0.33803436 -0.0014877133 -0.6617874 0.289239 0.6772058
-0.012119103 -0.2849621 -0.32159016 -0.34876096 0.0068494976 -0.33469614 -0.32862923 -0.29232103
1.1299253 -0.31686795 -0.054483145 -0.3302035 -0.96104884 -0.26978368 0.28539142 -0.2720932
-0.8954837 0.33719134 0.36925486 -0.31685257 0.30195782 -0.2738935 -0.0043605864 -0.3656974
-0.24937609 0.20985252 0.05083689 -0.7433405 0.019706845 -0.3213855 0.5770032 -0.6004368
0.6330153 0.0023302436 -0.00037976354 0.35616565 -0.33440033 0.32579935 0.6812309 -0.2913308
-0.944947 0.33565482 -0.94276416 -1.2456731 0.29520258 -0.60942125 -0.3572246 -0.2986802
-0.011212528 -0.2774564 -0.25699875 -0.8571727 -0.4500835 0.34583265 -0.31726348 0.6434362
-0.2691865 0.59199643 -0.6331612 -0.29626098 0.049235366 0.04066979 0.3162573 -0.009657115
-0.6812633 0.28779688 0.1763438 0.36787194 -0.9656962 0.58109224 0.35138237 0.6425829
-0.3658012 -0.9868256 0.68190247 -0.60305715 -0.6799308 0.30231264 0.19839391 -0.36650705
-0.0154898465 -0.66423374 -0.3450161 1.3114319 -0.34096453 0.26529306 0.00024393201 -0.5930891
0.27616137 -0.6018292 -0.05403948 -0.30968264 0.044881158 -0.31918338 0.336426 -0.321714
-0.32848957 -0.66466266 0.044873685 -0.26960203 0.35639393 0.37009835 -0.78462553 -0.63935405
00000000: 5b7e c8bf 2cbe a8bf 20e1 16bc aa6f 883e
00000010: 580d 9d3e 8201 a7be 1480 c4be 06c2 bc3e
00000020: cad6 abbe 40f5 943c 6cac 9dbe f805 f23c
00000030: 50ba 95be 9044 1e3d 32db 14bf 70d9 833d
00000040: f2db 283f b4c5 58bf 2ac5 9a3e 1099 76bf
00000050: c9a9 18bf 8e67 493e c8ff b43c 647b c0bc
00000060: c644 183f 7fbd aa3e eb3f a3be d262 963e
00000070: 1515 abbe 91f2 2dbf 432a 25bf eba5 8e3f
00000080: 4db1 47bd ec1e 713f a0d8 d63c 067e 893e
00000090: 60f2 8abe 8e89 8d3e b8c5 e93c c6c2 98be
000000a0: a488 60bc e044 6b3f 2868 b43e b0d8 6abf
000000b0: e003 b6be 38a4 aebe bafc 67bf 9226 91be
000000c0: da5d 4d3f e0a2 6b3c 9254 13bf 001f 563b
000000d0: b09f 3d3d 4613 1fbf 6143 8a3e e079 f0bc
000000e0: f432 adbe d6f0 b9be e7c4 943e 0dfa 85be
000000f0: 9df5 1abf 1e3c 91be 864c 263f 00b5 6a3b
00000100: c7f6 113f ee2c 9f3e fac1 19bf 8903 8fbe
00000110: 148f 8abe f6ea 9d3e e7dd 0e3f eaff f1be
00000120: b613 bbbe a62e 9cbe 0684 05bf 7caf 50bf
00000130: 70ae 8cbf 0ab8 8dbf 8092 ebbc 5dda adbe
00000140: d6e7 b1be c041 ec3c e0b3 3b3d 0a27 6abf
00000150: 988c a93e 1431 dcbe bda8 bc3e eb29 153f
00000160: a29f 7bbf eefe 27bf c871 6c3f 4aae babc
00000170: bf78 5cbf 32eb aebe 7c44 1fbf 1337 b23e
00000180: 763c 21bf b291 20bf 261e 113f 7374 f1be
00000190: a751 7abf 8a16 c53f 0268 23bf 6b95 963f
000001a0: 5d08 b4be a9e6 9bbe 30ee b53e e865 19bf
000001b0: bd77 b73e f6b5 bd3e 0241 b73e a8e9 b63e
000001c0: 6063 093c 4e54 56bf b907 54bf 4765 57bd
000001d0: 8d4c 603f ce0f 90be 4669 f43e 8436 943e
000001e0: 00ff e8bc a720 2d3f caae 3dbf 82ea 05bf
000001f0: 6922 10bf 238a b3be accb 96bc 1461 d93c
00000200: d6f4 7abf baac 793f a04f 603d 84ce e1bd
00000210: 04ff 8b3e 54a3 983e 42e3 0ebd 4d3a afbe
00000220: 8640 193f df82 acbe 2dba 9d3e 9148 153f
00000230: 80bf 91bf 423f 24bf 3a37 20bf c866 2f3f
00000240: 491d 95be e8a8 81bb d83e 23bf d712 adbe
00000250: 60ff c2ba e66a 29bf 2217 943e 5c5d 2d3f
00000260: 348f 46bc 8de6 91be 77a7 a4be cc90 b2be
00000270: c071 e03b 4b5d abbe 1742 a8be 1aab 95be
00000280: 64a1 903f 843c a2be b829 5fbd 6f10 a9be
00000290: 4c07 76bf 1621 8abe d31e 923e cd4f 8bbe
000002a0: 6b3e 65bf 58a4 ac3e f90e bd3e 803a a2be
000002b0: 379a 9a3e c53b 8cbe 40e3 8ebb b13c bbbe
000002c0: 725c 7fbe 94e3 563e 583a 503d 904b 3ebf
000002d0: 4070 a13c a48c a4be 7bb6 133f 3ab6 19bf
000002e0: 4a0d 223f 00b7 183b 001b c7b9 585b b63e
000002f0: 8536 abbe 2ccf a63e 2665 2e3f 5029 95be
00000300: 0ce8 71bf f3da ab3e fe58 71bf 3772 9fbf
00000310: cb24 973e 0803 1cbf 25e6 b6be 9cec 98be
00000320: c0b4 37bc c40e 8ebe 5795 83be ac6f 5bbf
00000330: 5871 e6be fa10 b13e 5c70 a2be 3cb8 243f
00000340: d0d2 89be 148d 173f da16 22bf 85af 97be
00000350: 06ab 493d 5e95 263d 7aec a13e e038 1ebc
00000360: 4667 2ebf 1d5a 933e 7893 343e b659 bc3e
00000370: de37 77bf 76c2 143f 64e8 b33e 5080 243f
00000380: 4b4a bbbe 9aa0 7cbf 2991 2e3f f461 1abf
00000390: f20f 2ebf b9c8 9a3e c627 4b3e d0a6 bbbe
000003a0: 20c9 7dbc 390b 2abf f3a5 b0be 00dd a73f
000003b0: e792 aebe 7ed4 873e 00c8 7f39 b0d4 17bf
000003c0: 0665 8d3e 7a11 1abf 8058 5dbd b98e 9ebe
000003d0: 4ed5 373d 016c a3be 0740 ac3e b3b7 a4be
000003e0: c92f a8be 5527 2abf 78cd 373d 4709 8abe
000003f0: 4479 b63e 887d bd3e 38dd 48bf b5ac 23bf

sequential_3/dense_10/MatMul;StatefulPartitionedCall/sequential_3/dense_10/MatMul f4 [64, 64]
-0.7977112 0.4332736 0.09254953 0.16103919 -0.67615175 -4.1346645 -0.47358438 -1.692284
0.21278295 -0.11616123 0.19035713 0.18389454 0.16158397 0.75705814 0.219883 -8.842791
0.058673527 -0.44681787 -0.17165948 0.49696797 0.2779569 -0.4700115 -0.002396971 0.4607085
-1.0351171 -0.11063779 0.18229425 0.16897133 0.4393164 -1.1970466 0.19208789 1.159652
0.12075457 0.15324388 0.52314085 0.30784893 0.24922396 0.764048 0.18862996 0.35757816
-0.8463088 -1.7784996 -0.16956538 -0.052834824 -12.505815 0.02597589 -0.1311861 -0.33952272
-0.23930618 -2.4915614 0.1444537 -0.38199362 0.14321578 -0.035221457 0.4166897 0.18715233
0.3067376 0.5100689 0.031899452 -0.046668246 0.35837394 -4.044635 -0.7361659 -3.006573
-0.10183136 -0.09939187 -0.032419145 -0.13543122 -0.26341784 -0.15389094 -0.039862365 -0.43132
0.0022574663 0.093460664 0.12213804 0.20706992 0.18099408 -0.17851053 -0.16746342 -0.24243526
0.079818055 -0.30337012 -0.24899845 -0.18667096 -0.19383833 -0.1520444 0.20005219 -0.09530751
-0.51843065 0.17548452 -0.0142403245 -0.34679267 0.037018612 0.18410392 0.15715791 -0.4840824
-0.03862542 -0.00034847856 0.004248351 -0.027093127 0.1762922 -0.20746273 -0.0069024116 -0.18253869
-0.47676116 -0.3155958 -0.057917193 0.0027142316 -0.3839013 -0.14350648 -0.4803978 -0.3390825
-0.50588167 -0.33249414 -0.17157498 -0.46836096 0.021388441 -0.08361484 -0.01921171 -0.3983925
-0.16703731 0.08042322 -0.40837368 -0.29871762 -0.015191302 -0.5089097 -0.20939901 -0.20133846
0.24735074 -0.103471175 0.103756964 0.048836306 -2.2884417 2.072032 2.0094595 -0.22754267
-0.16656247 0.022831142 -0.04969059 -0.19969967 -0.0082579255 -11.623052 -0.16798353 1.2572143
0.20027782 -0.105024844 -0.26585117 -0.08738805 -0.16463268 0.4032459 0.12969385 -0.0065683275
-3.524301 0.00049859285 -0.15746386 -0.53473514 -0.19904111 -0.61350083 0.0073337853 -0.2626184
-0.14657615 0.14758654 -0.04915887 -0.10803957 -0.06762251 -0.09903761 0.17640029 0.13155936
1.0594485 -0.07888457 0.053063586 0.17564504 -1.0831158 0.20765217 1.4069259 -0.014074415
-2.689502 -0.47010073 -0.10433528 -2.4345691 0.15158097 0.14515729 -0.13678595 -0.6780633
-0.17358297 0.10021092 -0.17020269 -0.2122203 -0.035811916 -0.16981108 -3.4837961 -0.847945
-0.22779508 -0.12407542 -0.15654123 0.014176577 -0.48249236 -0.09552735 -0.15056954 -0.11101957
0.103683785 0.022282794 0.08691092 0.17759337 0.10475816 -0.32767123 0.16313629 -0.14447092
-0.20624101 -0.18250288 -0.51707745 0.08538075 -0.04886964 -0.2611165 0.070889905 -0.07699324
-0.27785325 -0.12060574 -0.21593802 -0.3351885 -0.022948518 0.07880606 0.024132878 -0.47130933
0.11509763 -0.27261227 -0.21211149 -0.11369987 0.13310476 -0.26501042 -0.033465818 0.022012725
-0.4311252 -0.22264473 0.019943103 -0.5118295 -0.45760038 -0.49328196 -0.23808216 -0.51773614
-0.32559434 -0.28277683 0.123927936 -0.25856787 0.17301945 -0.17417416 -0.20353188 -0.2377836
-0.21231596 0.13730074 -0.17422606 -0.22388445 0.027259082 -0.45486024 -0.5098089 -0.51614183
00000000: cd36 4cbf 0ad6 dd3e 9c8a bd3d 75e7 243e
00000010: 4818 2dbf 2c4f 84c0 a779 f2be c39c d8bf
00000020: c6e3 593e f0e5 edbd fbec 423e da4e 3c3e
00000030: 4576 253e 90ce 413f 0229 613e 127c 0dc1
00000040: a753 703d 50c5 e4be 81c7 2fbe 9672 fe3e
00000050: 5e50 8e3e 59a5 f0be 8016 1dbb fce1 eb3e
00000060: b87e 84bf 1196 e2bd 58ab 3a3e d206 2d3e
00000070: 14ee e03e d338 99bf b0b2 443e 7a6f 943f
00000080: 2c4e f73d f7eb 1c3e 8fec 053f 609e 9d3e
00000090: 9134 7f3e a698 433f 3628 413e 7c14 b73e
000000a0: b2a7 58bf e0a5 e3bf 8ca2 2dbe 5469 58bd
000000b0: d117 48c1 64cb d43c a655 06be ecd5 adbe
000000c0: ae0c 75be be75 1fc0 aceb 133e ab94 c3be
000000d0: 28a7 123e 6044 10bd 5a58 d53e dca4 3f3e
000000e0: b60c 9d3e e093 023f 00a9 023d 3427 3fbd
000000f0: ca7c b73e a66d 81c0 5e75 3cbf b16b 40c0
00000100: f68c d0bd f78d cbbd f0c9 04bd 7bae 0abe
00000110: b4de 86be 9695 1dbe b846 23bd fad5 dcbe
00000120: 00f2 133b 4e68 bf3d 8223 fa3d 230a 543e
00000130: 8356 393e 77cb 36be 887b 2bbe f340 78be
00000140: a677 a33d 5453 9bbe 73f9 7ebe ac26 3fbe
00000150: 8e7d 46be 87b1 1bbe 7bda 4c3e 9530 c3bd
00000160: dfb7 04bf 37b2 333e 4050 69bc cf8e b1be
00000170: d4a0 173d bd85 3c3e 01ee 203e a6d9 f7be
00000180: b035 1ebd 00b4 b6b9 c035 8b3b 68f2 ddbc
00000190: f185 343e 1c71 54be a02d e2bb 6ceb 3abe
000001a0: 0a1a f4be c695 a1be 943a 6dbd 40e1 313b
000001b0: b68e c4be 5df3 12be b3f6 f5be 399c adbe
000001c0: 7681 01bf ac3c aabe 5ab1 2fbe 02cd efbe
000001d0: d036 af3c 423e abbd e061 9dbc 1afa cbbe
000001e0: d40b 2bbe eeb4 a43d 5b16 d1be 84f1 98be
000001f0: f0e4 78bc e847 02bf b26c 56be ab2b 4ebe
00000200: 8349 7d3e b2e8 d3bd 887e d43d 9408 483d
00000210: d475 12c0 2c9c 0440 fc9a 0040 f200 69be
00000220: 5a8f 2abe 6008 bb3c 5c88 4bbd 127e 4cbe
00000230: 404c 07bc 05f8 39c1 e003 2cbe 66ec a03f
00000240: a115 4d3e 4417 d7bd a51d 88be 82f8 b2bd
00000250: 7895 28be 3f76 ce3e 77ce 043e 203b d7bb
00000260: 268e 61c0 00b4 023a 353e 21be 67e4 08bf
00000270: 6fd1 4bbe 640e 1dbf 4050 f03b eb75 86be
00000280: 0f18 16be ed20 173e d05a 49bd da43 ddbd
00000290: ac7d 8abd 3bd4 cabd 47a2 343e 7fb7 063e
000002a0: 029c 873f 3c8e a1bd 3459 593d 4bdc 333e
000002b0: 8aa3 8abf c5a2 543e 2616 b43f 6098 66bc
000002c0: cd20 2cc0 0bb1 f0be bcad d5bd fbcf 1bc0
000002d0: 0b38 1b3e 1da4 143e 9e11 0cbe 8e95 2dbf
000002e0: bcbf 31be 623b cd3d 9d49 2ebe 4750 59be
000002f0: 84af 12bd f5e2 2dbe 84f6 5ec0 ec12 59bf
00000300: 1d43 69be 411b febd 584c 20be e044 683c
00000310: 3d09 f7be d8a3 c3bd e72e 1abe 3a5e e3bd
00000320: 2a58 d43d 688a b63c 5afe b13d 09db 353e
00000330: 728b d63d 86c4 a7be 330d 273e 2ff0 13be
00000340: d830 53be 09e2 3abe 305f 04bf 1adc ae3d
00000350: 882b 48bd 10b1 85be ba2e 913d a2ae 9dbd
00000360: c842 8ebe 2400 f7bd db1e 5dbe d49d abbe
00000370: 88fe bbbc 1265 a13d 50b2 c53c 754f f1be
00000380: 4eb8 eb3d d693 8bbe c133 59be 7adb e8bd
00000390: 9d4c 083e 72af 87be 7413 09bd 0854 b43c
000003a0: 71bc dcbe fbfc 63be b85f a33c 4207 03bf
000003b0: 994a eabe 748f fcbe cfcb 73be 5b8a 04bf
000003c0: 4db4 a6be 20c8 90be eecd fd3d 0263 84be
000003d0: 032c 313e b65a 32be a96a 50be 8b7d 73be
000003e0: 5b69 59be 9198 0c3e 5168 32be f741 65be
000003f0: 704e df3c 71e3 e8be d682 02bf df21 04bf

sequential_3/dense_11/MatMul;StatefulPartitionedCall/sequential_3/dense_11/MatMul f4 [1, 64]
0.005952984 0.21864888 -0.9342842 0.1279101 -0.04660067 0.6396114 0.08788782 -0.42228737
-0.031945884 -0.21046096 -0.15186715 -0.18218297 -0.32524282 0.03118822 0.069608 -0.19088817
0.8259876 -0.5391468 0.2991454 -0.8706587 0.19897167 0.23011982 0.24951707 -0.11480342
-0.113353506 -0.12844592 -0.22693208 0.15470825 0.12799641 0.11382881 2.027705 0.059289902
0.057167888 -0.6531441 0.09175295 -0.13762423 -0.0760169 0.17018327 0.16908455 -0.808568
0.095754534 -0.13573961 -0.46676353 0.19782756 -0.007584423 0.019946307 0.012907356 -0.0017696917
-0.20066708 -0.42674366 -0.34170136 -1.6295807 0.696005 -0.072007 -0.17078656 0.07830301
0.13688199 1.2237731 -0.31071207 -0.8356414 -0.8850384 -0.08115253 -0.3001926 -0.24329334
00000000: 4011 c33b 7ee5 5f3e 402d 6fbf defa 023e
00000010: 58e0 3ebd 93bd 233f 88fe b33d 0d36 d8be
00000020: b0d9 02bd 1483 57be 1083 1bbe 2c8e 3abe
00000030: 3a86 a6be 707e ff3c a48e 8e3d 3078 43be
00000040: ec73 533f 8605 0abf 9629 993e 7de3 5ebf
00000050: 3bbf 4b3e 88a4 6b3e 6781 7f3e 0e1e ebbd
00000060: e225 e8bd 5487 03be e260 68be d76b 1e3e
00000070: 7e11 033e 141f e93d ebc5 0140 f8d9 723d
00000080: e028 6a3d 7434 27bf f8e8 bb3d 5eed 0cbe
00000090: c0ae 9bbd 8644 2e3e 8024 2d3e 50fe 4ebf
000000a0: f41a c43d 53ff 0abe a1fb eebe 4f93 4a3e
000000b0: c086 f8bb 7066 a33c 6079 533c 00f5 e7ba
000000c0: ac7b 4dbe 257e dabe 7bf3 aebe 1a96 d0bf
000000d0: 622d 323f 6878 93bd ace2 2ebe 545d a03d
000000e0: cb2a 0c3e 99a4 9c3f a715 9fbe 98ec 55bf
000000f0: e091 62bf 4c33 a6bd d8b2 99be e421 79be
